Model: "model"
__________________________________________________________________________________________________
Layer (type)                    Output Shape         Param #     Connected to
==================================================================================================
input_1 (InputLayer)            [(None, 133, 133, 3) 0
__________________________________________________________________________________________________
input_2 (InputLayer)            [(None, 133, 133, 3) 0
__________________________________________________________________________________________________
conv2d (Conv2D)                 (None, 62, 62, 256)  93184       input_1[0][0]
                                                                 input_2[0][0]
__________________________________________________________________________________________________
leaky_re_lu (LeakyReLU)         (None, 62, 62, 256)  0           conv2d[0][0]
                                                                 conv2d[1][0]
__________________________________________________________________________________________________
batch_normalization (BatchNorma (None, 62, 62, 256)  1024        leaky_re_lu[0][0]
                                                                 leaky_re_lu[1][0]
__________________________________________________________________________________________________
dropout (Dropout)               (None, 62, 62, 256)  0           batch_normalization[0][0]
                                                                 batch_normalization[1][0]
__________________________________________________________________________________________________
conv2d_1 (Conv2D)               (None, 58, 58, 256)  1638656     dropout[0][0]
                                                                 dropout[1][0]
__________________________________________________________________________________________________
leaky_re_lu_1 (LeakyReLU)       (None, 58, 58, 256)  0           conv2d_1[0][0]
                                                                 conv2d_1[1][0]
__________________________________________________________________________________________________
max_pooling2d (MaxPooling2D)    (None, 29, 29, 256)  0           leaky_re_lu_1[0][0]
                                                                 leaky_re_lu_1[1][0]
__________________________________________________________________________________________________
batch_normalization_1 (BatchNor (None, 29, 29, 256)  1024        max_pooling2d[0][0]
                                                                 max_pooling2d[1][0]
__________________________________________________________________________________________________
dropout_1 (Dropout)             (None, 29, 29, 256)  0           batch_normalization_1[0][0]
                                                                 batch_normalization_1[1][0]
__________________________________________________________________________________________________
conv2d_2 (Conv2D)               (None, 25, 25, 128)  819328      dropout_1[0][0]
                                                                 dropout_1[1][0]
__________________________________________________________________________________________________
leaky_re_lu_2 (LeakyReLU)       (None, 25, 25, 128)  0           conv2d_2[0][0]
                                                                 conv2d_2[1][0]
__________________________________________________________________________________________________
batch_normalization_2 (BatchNor (None, 25, 25, 128)  512         leaky_re_lu_2[0][0]
                                                                 leaky_re_lu_2[1][0]
__________________________________________________________________________________________________
conv2d_3 (Conv2D)               (None, 23, 23, 128)  147584      batch_normalization_2[0][0]
                                                                 batch_normalization_2[1][0]
__________________________________________________________________________________________________
leaky_re_lu_3 (LeakyReLU)       (None, 23, 23, 128)  0           conv2d_3[0][0]
                                                                 conv2d_3[1][0]
__________________________________________________________________________________________________
batch_normalization_3 (BatchNor (None, 23, 23, 128)  512         leaky_re_lu_3[0][0]
                                                                 leaky_re_lu_3[1][0]
__________________________________________________________________________________________________
conv2d_4 (Conv2D)               (None, 21, 21, 64)   73792       batch_normalization_3[0][0]
                                                                 batch_normalization_3[1][0]
__________________________________________________________________________________________________
leaky_re_lu_4 (LeakyReLU)       (None, 21, 21, 64)   0           conv2d_4[0][0]
                                                                 conv2d_4[1][0]
__________________________________________________________________________________________________
batch_normalization_4 (BatchNor (None, 21, 21, 64)   256         leaky_re_lu_4[0][0]
                                                                 leaky_re_lu_4[1][0]
__________________________________________________________________________________________________
global_average_pooling2d (Globa (None, 64)           0           batch_normalization_4[0][0]
                                                                 batch_normalization_4[1][0]
__________________________________________________________________________________________________
dense (Dense)                   (None, 4096)         266240      global_average_pooling2d[0][0]
                                                                 global_average_pooling2d[1][0]
__________________________________________________________________________________________________
leaky_re_lu_5 (LeakyReLU)       (None, 4096)         0           dense[0][0]
                                                                 dense[1][0]
__________________________________________________________________________________________________
add (Add)                       (None, 4096)         0           leaky_re_lu_5[0][0]
                                                                 leaky_re_lu_5[1][0]
__________________________________________________________________________________________________
dense_1 (Dense)                 (None, 2048)         8390656     add[0][0]
__________________________________________________________________________________________________
batch_normalization_5 (BatchNor (None, 2048)         8192        dense_1[0][0]
__________________________________________________________________________________________________
dense_2 (Dense)                 (None, 1024)         2098176     batch_normalization_5[0][0]
__________________________________________________________________________________________________
batch_normalization_6 (BatchNor (None, 1024)         4096        dense_2[0][0]
__________________________________________________________________________________________________
dense_3 (Dense)                 (None, 8)            8200        batch_normalization_6[0][0]
==================================================================================================
Total params: 13,551,432
Trainable params: 13,543,624
Non-trainable params: 7,808
__________________________________________________________________________________________________
Epoch 1/20
4562/4564 [============================>.] - ETA: 0s - loss: 61.3083 - acc: 0.1532
…
